pretrained_weights/classifier_binary.pt (torch, 2516 bytes, 2 tensors)

weight f4 [15]
0	0x3f68d8d5	0.9095586
1	0x3f739bd6	0.9515966
2	0x3f782d61	0.9694424
3	0x3f871cb0	1.055563
4	0x3f6e88b4	0.9317734
5	0x3f837732	1.027075
6	0x3f64d9ab	0.89394635
7	0x3f69889d	0.9122408
8	0x3f76aee1	0.96360594
9	0x3f84166d	1.0319344
10	0x3f6b3959	0.9188438
11	0x3f65a9ff	0.8971252
12	0x3f6be719	0.921495
13	0x3f6ed415	0.9329236
14	0x3f6b28da	0.9185921

bias f4 [15]
0	0xbdb984c2	-0.09058525
1	0xbda4ca35	-0.080463804
2	0xbd84ce75	-0.06484691
3	0xbd9044a4	-0.07044342
4	0xbdb1ca2f	-0.086811416
5	0xbd8dc4b1	-0.069222815
6	0xbdca93c5	-0.09891466
7	0xbd87236e	-0.065985546
8	0x3da71617	0.0815851
9	0xbda56b2b	-0.08077081
10	0xbda98dd3	-0.08279004
11	0xbd41127d	-0.047136772
12	0xbda636f7	-0.081159525
13	0xbd91b45f	-0.07114481
14	0x3d800068	0.062500775
