pretrained_weights/weights_f90_80epoch_mc/classifier_binary.pt (torch, 2516 bytes, 2 tensors)

weight f4 [15]
000000 9d 89 c0 3e 89 c2 3f 3f 7e bb a6 3f 4d 87 04 3f
       0.3760499 0.7490621 1.3025968 0.5176895
000010 86 3e aa 3f a3 ec 44 3f e9 40 8f 3f b0 74 57 3f
       1.3300331 0.7692358 1.1191684 0.84162426
000020 87 f2 b8 3f 25 5d 89 3f 90 34 19 3f 61 a6 c5 3e
       1.4449013 1.073155 0.5984583 0.386035
000030 56 78 e2 3e 21 f8 c8 3f 42 c7 08 3f
       0.44232434 1.5700723 0.53429043

bias f4 [15]
000000 37 24 57 bf 4e 68 96 bf 83 1d a0 bf cc a2 b2 bf
       -0.84039634 -1.1750581 -1.2509006 -1.3955932
000010 be ab bf bf 47 b9 ee bf fe 11 df be 2c e5 ad be
       -1.4974287 -1.8650292 -0.43568414 -0.33963907
000020 bd 31 67 3f 97 58 e6 bf 7d 96 dc bf 00 78 06 ba
       0.9031027 -1.7995785 -1.7233425 -0.0005129576
000030 04 c8 12 bf 27 62 b6 bf 9e 78 91 3f
       -0.5733645 -1.4248704 1.1364934
