pretrained_weights/weigths_f10_100epochs_mc/classifier_binary.pt (torch, 2516 bytes, 2 tensors)

weight f4 [15]
00000000: 48db 973d 8a32 08bd abd6 013f 0982 a1bd
00000010: 70e0 103e 332e e1bd 9305 683e 587a 223e
00000020: da33 1b3f 700a 923f 8a18 af3e 905b 3d3e
00000030: 95d2 e13e d1b8 953f ce77 233f
0.074148715 -0.033251323 0.5071818 -0.0788613 0.14148116 -0.1099514 0.22658376 0.15866983
0.60625994 1.1409435 0.3419841 0.1849196 0.44105974 1.1697026 0.6385468

bias f4 [15]
00000000: 810c 7dbf ce60 88bf e772 f4be 6bad 8ebf
00000010: 75e6 97bf e518 98bf 02cd 2bbf 8034 47bf
00000020: cb1b 223f 6ac6 8bbf 282b 94bf bd57 f13e
00000030: b77f b1bd 06c2 60bf 11e3 a43e
-0.98847204 -1.0654542 -0.47743914 -1.1146673 -1.1867205 -1.1882597 -0.6710969 -0.77814484
0.6332366 -1.0919926 -1.157567 0.47137251 -0.08666938 -0.87796056 0.32204488
