pretrained_weights/weights_f10_80epoch/classifier.pt (torch, 2474 bytes, 2 tensors)

weight f4 [18]
00000000: 566f 693f 2f38 693f 9db2 733f 5f32 713f
00000010: 2ae5 823f 12db 6b3f ac75 7d3f ba52 7c3f
00000020: bd8e 813f fa39 7a3f 1297 7b3f 52ac 783f
00000030: e1ac 7c3f 4995 723f 44f6 6d3f 2e8b 6b3f
00000040: 6e0d 7c3f c896 6f3f
0.9118551 0.91101354 0.9519442 0.94217485 1.0226185 0.9213115 0.9900768 0.9856373
1.0121685 0.97744715 0.9827739 0.9713794 0.9870129 0.9475904 0.92953897 0.92009246
0.9845799 0.9358945

bias f4 [18]
00000000: 3b08 573c 23c9 9f3c f720 d83c e753 3b3b
00000010: dd65 4fbc 1879 a8bb 7971 9ebc 4ee8 853c
00000020: ae91 d6bc 0bae 24bc dd47 48bb 8537 25bc
00000030: f079 02bd eade 783d 7113 31bc 724f 143c
00000040: 2265 97bc 38ae 13bd
0.013124521 0.01950509 0.026382906 0.0028583945 -0.012658563 -0.0051413886 -0.019341217 0.016346123
-0.026192512 -0.010051261 -0.0030560412 -0.010084038 -0.03185457 0.060759462 -0.010807858 0.009052144
-0.018480841 -0.03605482
