pretrained_weights/weights_f90_120_epoch_mc/classifier_binary.pt (torch, 2516 bytes, 2 tensors)

weight f4 [15]
0.13188192 0.45786893 1.2313379 0.38719368 0.89656603 0.55658394 0.7838621 0.6950598
0.7873144 0.8205376 0.38974428 0.43788004 0.33606052 0.9805578 0.43713412
00000000: 0e0c 073e cc6d ea3e 7b9c 9d3f 403e c63e
00000010: 5a85 653f 497c 0e3f 30ab 483f 70ef 313f
00000020: 708d 493f c10e 523f 908c c73e d031 e03e
00000030: 2010 ac3e d605 7b3f 0bd0 df3e

bias f4 [15]
-0.7578631 -1.1075169 -0.48550898 -1.234197 -1.6313565 -2.0630126 -0.015310649 -0.01610539
0.9368865 -2.151356 -1.8535801 0.31411168 -0.32631955 -1.374071 0.88301414
00000000: 5103 42bf 1dc3 8dbf a294 f8be 2bfa 9dbf
00000010: 4ad0 d0bf 6608 04c0 84d9 7abc 73ef 83bc
00000020: cbd7 6f3f d1af 09c0 1d42 edbf 3fd3 a03e
00000030: 5b13 a7be 8fe1 afbf 370d 623f
